developpement/MNIST/weights/mnist_net.pth (torch, 185061 bytes, 10 tensors)

conv1.weight f4 [8, 1, 5, 5]
00000000: 56fa acbe bdf3 96bd 611e 0ebe 2150 4c3c
00000010: 4784 89be d188 aebd e572 9ebe f655 17be
00000020: 11de 69be ee71 6dbe b627 2e3e 06f6 833d
00000030: 61d9 57be 2445 f83d d9d9 353e 2fd5 9a3d
00000040: 9063 6c3d 31a4 babd 1934 4cbd c827 423d
00000050: 602e 943e fc6c 993e 0828 853e 0e46 993d
00000060: 38a0 d63d a03d 183e a2b4 e8bd f9aa 30be
00000070: 409b 513d c4c0 8fbc 73b8 02b8 c5b5 2e3c
00000080: dbbb 5cbe fea2 e4bc b290 abbe ccf3 793e
00000090: 1ecc ce3d f906 a2bc 427d 14be 679e 9fbe
000000a0: 2759 c93d e00b 8e3e 6e32 863c 608a 9b3d
000000b0: e9f8 b63d e087 c13d 5b19 acbd cee6 a73e
000000c0: 9b8a a43e 86a4 993e 40bc bb3d 878a 4bbd
000000d0: b397 53bd b16f 903e 487d 5a3e bf8f 383e
000000e0: 7577 9f3e 4d4c bb3e 94a2 cd3e 71c1 bb3e
000000f0: 3ab7 fbbd bcd3 b2bd 7ef8 313d 5d48 cf3d
00000100: 7f1a 8abd 5ea7 aabd 834d aebe e0a0 acbe
00000110: 993e 83be 63f2 46bc 4d6a 36be b7d2 a2be
00000120: 957f 6abe 7ccf a8be e383 c2bd 39f5 273e
00000130: 92bb 323d 6721 93be 39cf b5be 8867 5cbe
00000140: 8232 5c3d 959e 703e bf06 0b3e ec3b 7c3e
00000150: 0e64 253e 74d6 08bd 5914 853e 3e47 703e
00000160: 79eb a53e e952 863e a391 37be fd62 023d
00000170: fccb 32be 9a0a 5fbd 839d 0abe d5eb 5cbd
00000180: 7670 54be 5867 43be dfc7 c13b 4c21 c73c
00000190: 300a 003d 5bd6 463e 41e4 603e eeb2 8c3e
000001a0: 3bb7 d63d c36f 433e 72b0 ebbb d960 cabd
000001b0: 3eeb 4c3d aadd 2ebd 2608 1abe 6313 28bd
000001c0: 5d4a 5b3d 403f 67bd affd 713d 3f60 1ebe
000001d0: 8191 73bc bd13 5a3d 1025 00be c27b c43c
000001e0: 0ff7 21be 9242 f2bd d11e adbe 037c d6bd
000001f0: c248 23be 79d3 d1be 6bdc d5be e736 fabe
00000200: 803f dbbe 7aa4 eb39 1910 c6be 0ce9 90be
00000210: 8027 01bf 017b 94be d804 d4bc 75cd e2be
00000220: 3046 adbe 76d8 b1be 8d7b abbe dcda f53d
00000230: 60b3 86be 6b40 9cbe 48ed 67be dc2a 06bd
00000240: 93e1 233e 5d61 42be 77ed 3dbe e5c6 cf3d
00000250: dac7 c0bc 7afd d13e e611 e63b 3492 483e
00000260: d2ca 60bd c2a7 36be 3c9e be3c d8c8 30bc
00000270: c785 943e d22d 363e 3e93 77be bbe6 543c
00000280: 271f 0c3e 4681 b13e 4218 b2bd 1d5b dbbd
00000290: 0f7d afbe bd41 e83e e6ff 863e 0a80 59be
000002a0: 1550 47be 83de 9bbe 7887 ab3e e918 c23d
000002b0: 5a59 36be 3df4 b13c 0ca6 87be 5fc8 28be
000002c0: a4e6 17be 45c1 143c 3214 49be 328f 69be
000002d0: 00cc 63be 96ab f73d 4515 37bd 368d 2dbe
000002e0: 515c 29be 0813 293e 2ea5 893d 5074 06be
000002f0: c817 26bd fdb5 89bd 7361 6e3d ed8b 45be
00000300: 6a8d 6fbe 18df 18be 5541 1abe 41dd e63d
00000310: 474e aa3c d86d cd3d 1ef5 133e 4544 6bbe
-0.3378474 -0.07370708 -0.13878776 0.012470276 -0.26858732 -0.085221894 -0.30947033 -0.14778885
-0.22838618 -0.23187992 0.17007336 0.064434096 -0.21079017 0.121225625 0.17758884 0.07560193
0.057712138 -0.09113348 -0.04985437 0.04740122 0.2894163 0.2996596 0.26007104 0.07484065
0.10479778 0.14867258 -0.11362578 -0.17252721 0.05117345 -0.017547973 -3.1166197e-05 0.010663454
-0.21556036 -0.027909752 -0.3350883 0.24409407 0.10097526 -0.019778715 -0.14500907 -0.3117554
0.098314576 0.27743435 0.016381469 0.07594752 0.089341946 0.09449744 -0.08403274 0.32793278
0.32136998 0.30008334 0.09166765 -0.049692657 -0.051658344 0.28210214 0.21336854 0.18023585
0.31145826 0.3658165 0.401631 0.36671022 -0.12290807 -0.087317914 0.04344987 0.10121224
-0.06743335 -0.08332704 -0.34043512 -0.33716488 -0.25633696 -0.01214275 -0.17813988 -0.31801388
-0.22900231 -0.32970798 -0.09497812 0.16402139 0.043635912 -0.2873642 -0.3550966 -0.21523869
0.053759106 0.23497994 0.13576792 0.24632233 0.16151449 -0.033407643 0.25992087 0.23464677
0.32406214 0.2623513 -0.1792665 0.031832684 -0.17460626 -0.05445347 -0.13536648 -0.053935844
-0.20746025 -0.19082391 0.005913719 0.02430787 0.031259716 0.19417708 0.21962072 0.27480263
0.10484167 0.19085602 -0.007192665 -0.098817535 0.050029032 -0.042691864 -0.15042171 -0.041034114
0.053537715 -0.056456804 0.059079822 -0.15466402 -0.014866234 0.05324148 -0.12514138 0.023984794
-0.15816902 -0.118291035 -0.33812574 -0.10472872 -0.15945724 -0.40981653 -0.41769728 -0.48870012
-0.42821884 0.00044945237 -0.38684157 -0.283028 -0.504509 -0.29000095 -0.025881216 -0.44297376
-0.3384261 -0.3473546 -0.334927 0.12004635 -0.26308727 -0.30517897 -0.2264911 -0.032755718
0.16004018 -0.18982454 -0.18547617 0.10145358 -0.023532797 0.410137 0.0070211766 0.19587022
-0.054880925 -0.17837432 0.023268811 -0.010790072 0.29008314 0.17790917 -0.24177262 0.012994464
0.13683759 0.3466894 -0.08696033 -0.10710738 -0.342751 0.45362654 0.2636711 -0.2124025
-0.19464143 -0.304432 0.33501792 0.094774075 -0.17807522 0.021722907 -0.2649387 -0.16482686
-0.14834076 0.009079282 -0.1963661 -0.22808531 -0.22245789 0.12093274 -0.04469802 -0.16948399
-0.16539122 0.16511166 0.06720959 -0.13130307 -0.040550023 -0.06724165 0.058198404 -0.19291659
-0.23393789 -0.14928854 -0.15063985 0.112726696 0.020789279 0.10030717 0.14448974 -0.22975262

conv1.bias f4 [8]
00000000: 009a e1bc a221 843e b53b 233e bcd1 7cbc
00000010: f8aa 393e 2e36 cfbc c017 2d3e 855c debd
-0.027539253 0.2580691 0.15940745 -0.015430864 0.18131626 -0.02529439 0.16903591 -0.108574905

conv2.weight f4 [16, 8, 5, 5]
00000000: 1af0 7bbc 7e54 c83d eba0 c23c 991b 933d
00000010: 292b 013d 1bd8 1abc 08b1 993d b911 a3bb
00000020: f50e b83d 7c5d e73d d9a6 dcbc 3485 be3d
00000030: a401 5a3d b64b 103e 2b50 3f3e c398 a13d
00000040: e2d4 95bb 8f6c fc3b d566 38bb b267 b13d
00000050: 5a41 79bd 11a1 adbc 00e6 e8bc 4bb9 013d
00000060: d464 103d c915 d4bc 5454 043d e920 523d
00000070: f0ca 83bc 0bbc b4bd 2979 bb3c ac92 723b
00000080: e90a 8b3d 0792 183c 22cf 443d f198 14bd
00000090: f9d1 9f3d fe9e 343e 3202 823e 8895 be3d
000000a0: ed2c 023d b934 073e a6b9 093e 447f 2c3e
000000b0: 78b3 0b3e 8245 c03a 74d1 86bc f016 c7bc
000000c0: 8a28 91bd c242 77bd 1144 d33b 57b3 93bc
000000d0: eb12 04bc 4cd9 433d 2ad1 bebc 0c07 8a3d
000000e0: 8b24 9f3c f20a dd3c 1f5a 9ebc 4d83 a7bc
000000f0: 3a41 493d 123d c53d 1de6 13bd 9d9e 483c
00000100: 06ca 05bd 9f70 f13d 58a8 a03d e3f4 253e
00000110: 9660 723e 4317 713e a501 e53d 631c 3a3e
00000120: 7482 813e c627 613e fb54 6d3e ccea 473d
00000130: 180c 303d bdfa 38bd 487c 75bc 5a16 0e3d
00000140: 33c7 0bbb 87c7 213d bda9 9c3d 0651 b7bc
00000150: 74a9 3a3c 6a8d 85bc 7be6 903c 9628 e03d
00000160: fdac 1d3e eb80 813d 059a 46bc 2b83 a93b
00000170: a252 4c3e 13c7 553e de9d e83d 03aa 7ebc
00000180: 0df7 f53d 8c4e 863d cf25 c63d b21f 253e
00000190: 8c7f 1ebd 3cfe 9fbc e736 69bb bc49 8d3c
000001a0: be2f d23c 905a 24bd 081c d43c 6b42 b0bc
000001b0: b235 443d 9af3 4c3d e417 53bd e580 0f3d
000001c0: f8a5 1dbd 024a 24bd 2156 94bd 49ad 1d3c
000001d0: b753 0c3e b5de 113e 4f70 563d bfbb e43d
000001e0: fd81 963d e570 ea3d c575 f03d 1bda 1a3e
000001f0: 0237 353e 032b 50bd d986 5dbd ab01 ae3c
00000200: 6f63 fd3d 9f86 c03b 5cd0 55bb cc21 c5bc
00000210: 64c0 8fbd a7db 903b 3e64 d83d 03cb 7cbc
00000220: 3d90 b83b baab 8f3b 21f6 1bbc bd39 b03b
00000230: 620b 07bd 04c7 46bd 20c5 15be 1561 3dbe
00000240: eeec 30be 62f3 623d d5ed 443c 248d 12bd
00000250: 83e1 aebc 0857 01be 49f9 843d a689 093e
00000260: a5fe e03d d3a4 bc3c a0eb 163c a743 9d3d
00000270: c20a 8e3d 94b8 c23d fcd9 833c ad64 7f3d
00000280: dfbd 37bb 2d10 89bd c86b 0a3d 5bad 8fbd
00000290: 7cb3 093c 06ba 2abc 3c59 12bd fc21 493c
000002a0: 117a e6bd 33d9 cbbd 0504 01bd 6110 3a3d
000002b0: 7d67 c5bd e3f1 c8bd 58b8 babc 54aa 663d
000002c0: 3c58 d83d 03fd 073e 2e86 003d bcf4 8dba
000002d0: d572 573d fa0f 4b3b 63db 8a3d b2bb 0b3e
000002e0: 8658 113d 4e09 863c 48ec 2ebd 8915 2bbd
000002f0: ce67 583c c4fd 093d defb 83bd 69d8 97bd
00000300: 708a 6cbc 327c 95bd 6b0a 4bbd d4b9 203d
00000310: eab8 833c 9781 0abd 64c1 28bc e12b 88bc
00000320: 9375 0bbd a062 81bd 83f8 7d3d b291 123d
00000330: 2146 ac3d 28da 8dbd fc5c f6bb 4dc7 debc
00000340: 369e 9cbd e963 b3bd 0f96 15bd 979f c03d
00000350: 86af 1c3c aff8 843d c38c 643d b6c9 beba
00000360: 0446 143e 931f a63d a13a b33d ba93 0bbd
00000370: 8414 073d 4103 953d 4a67 fc3c 4981 e13d
00000380: 0743 103d 5527 1d3d b02e 043d 879f b03d
00000390: 1fe3 2f3d 4751 e3bb 8548 23bd a7f4 d8bc
000003a0: d9ba 7fbd 9459 18bd 4dd2 a3bd 23ba 81bc
000003b0: 959d 203d 6d54 2abd f3c6 90bd 51d5 f2bd
000003c0: 80f4 193c a642 9a3d 6fd9 67bd 91af 9ebc
000003d0: bb9d 9cbc d3fb 893c 3874 19bc 9a2c 0ebd
000003e0: db2f 203d 026d 48bd 81de 423d 8a64 c33b
000003f0: 2481 003e 58cf 0e3e ca0a d73d c8a5 253e
-0.015377069 0.097817406 0.023758372 0.07182998 0.0315353 -0.009450938 0.07504469 -0.004976478
0.08987228 0.112971276 -0.026935028 0.0930275 0.05322422 0.14091381 0.18682925 0.07890465
-0.0045724967 0.007703371 -0.0028137465 0.086623564 -0.06085334 -0.021194967 -0.028429985 0.03167085
0.035252407 -0.025889294 0.032306984 0.051300917 -0.01608798 -0.08824929 0.022884922 0.0037013693
0.0678919 0.009312159 0.0480491 -0.03627867 0.07803721 0.17638776 0.253923 0.093058646
0.031781126 0.13203706 0.13449726 0.16845423 0.1364268 0.0014669152 -0.016457297 -0.02430293
-0.0708781 -0.0603664 0.006447323 -0.018029852 -0.008061151 0.047814652 -0.023293097 0.06739625
0.019426605 0.026982758 -0.019330082 -0.020448351 0.04913447 0.09630789 -0.036108125 0.012244848
-0.032663368 0.11789059 0.07844609 0.16206698 0.23669657 0.2354403 0.11181954 0.18174891
0.2529484 0.21987829 0.23176949 0.048807904 0.042980283 -0.045160998 -0.014983244 0.034689285
-0.0021328449 0.039496925 0.076495625 -0.022377502 0.01139294 -0.016302783 0.017688027 0.10945241
0.15398021 0.06323417 -0.012121682 0.005173107 0.19953397 0.20876722 0.11358236 -0.015543464
0.12010012 0.065579504 0.0967518 0.16125372 -0.038695857 -0.019530408 -0.0035585703 0.017247073
0.02565753 -0.04012543 0.025892273 -0.021516046 0.04790277 0.050037004 -0.051536456 0.035035033
-0.03848836 -0.04010964 -0.0724299 0.009623834 0.1370381 0.14245112 0.0523532 0.11168622
0.07349012 0.11447314 0.11741213 0.15122263 0.17696765 -0.05082227 -0.05408368 0.02124103
0.12372481 0.005875423 -0.0032625413 -0.024063967 -0.070191175 0.004420716 0.10565995 -0.015429261
0.005632429 0.004384485 -0.009519131 0.0053779767 -0.03296984 -0.04852964 -0.14625978 -0.18494065
-0.17277882 0.05540789 0.012019594 -0.035779133 -0.021347767 -0.12630856 0.0649286 0.13431415
0.109860696 0.023027813 0.009211451 0.07678919 0.06935646 0.09507862 0.016095154 0.06235187
-0.0028036756 -0.066925384 0.033794194 -0.07015487 0.008404609 -0.010420328 -0.03572963 0.012276169
-0.11253751 -0.09953537 -0.031497974 0.045425776 -0.096388794 -0.09811761 -0.02279298 0.05631478
0.10563704 0.1328011 0.031377964 -0.0010830383 0.052599747 0.0030984865 0.06780126 0.13645819
0.035484813 0.016361859 -0.042705804 -0.041768584 0.013208343 0.033689275 -0.06444524 -0.07414324
-0.014437303 -0.07299079 -0.049570482 0.03923972 0.016079385 -0.033814993 -0.010300014 -0.016622486
-0.034047674 -0.06317639 0.062004577 0.035783477 0.084118135 -0.06926376 -0.007518409 -0.027194643
-0.07647364 -0.08759291 -0.03652006 0.09405439 0.009563332 0.06492745 0.055798303 -0.0014555964
0.14479834 0.08111491 0.08751417 -0.03407643 0.03297855 0.07276011 0.03081097 0.11010987
0.035220172 0.038367588 0.032271087 0.086241774 0.04294121 -0.0069371792 -0.039864082 -0.026483847
-0.06243405 -0.037194803 -0.07999096 -0.015835827 0.039212782 -0.04158442 -0.070691966 -0.11857093
0.009396672 0.075322434 -0.056603845 -0.019370826 -0.01911818 0.016843712 -0.009366088 -0.034710504
0.03910814 -0.048932083 0.047575478 0.005962913 0.12549263 0.13946283 0.10500105 0.16176522

conv2.bias f4 [16]
00000000: bd40 273b f5bd 253d f3a4 63bc 208d 06bd
00000010: d201 f4ba 7ae9 f33b 4c3a 8bbd f12a b33c
00000020: 686e 11bd 1f47 563b 36f9 c1bc 8b3c fdbc
00000030: 60f1 313c 4420 a23d c7fd 03bd ed3e d5bc
0.0025520765 0.04046436 -0.013894307 -0.03284943 -0.0018616265 0.007443604 -0.067982286 0.021871062
-0.035505682 0.00326962 -0.023678403 -0.030912658 0.010860771 0.079163104 -0.032224443 -0.026030982

fc1.weight f4 [128, 256]
00000000: 7073 333d afe1 a13c efce b73c f7c4 c53c
00000010: 4fd2 48bd 5bbb 78bd 2bea acbc a729 76bc
00000020: 8548 ff3b 2b65 5ebd d03f 563d 86a5 f53c
00000030: 654f 79bd b38d e73a 4533 62bc cea8 52bd
00000040: a265 1d3d 0af7 d8bc fa0f d6bc 344e 233d
00000050: 9e5c 4b3d 69b0 483d d342 13bd 82b4 703d
00000060: 819a 6d3d f11e 52bd 0ea9 79bb 520d dc3b
00000070: 070a b9bc 3b49 603d 457f 0ebd 39fd 7bbd
00000080: 0b5f e1bc 68a7 5bbd 1c7f d7ba 3ea7 0f3d
00000090: d762 353d 4c05 9f3b 1c24 513c b4e6 423d
000000a0: 44d0 f33b 480b 1e3d 41ae 003c d16b bfbc
000000b0: 00a5 debc 739d 543a 5e3a 97bc 9a3a 06bd
000000c0: 7424 413d 9047 78bd 9bc9 ccbc 5559 45bd
000000d0: ae2f 9ebc 70d8 54bd 5415 2a3d 67b1 09bd
000000e0: 1dc8 553d 2980 51bd 78ae 62bd 8de9 48bd
000000f0: ef5a 9fbb 18c8 f03a f9db c13b 1c21 033d
00000100: 286c c83c 47b6 043d 3579 e5bc 8d87 8dbb
00000110: 8ac5 2e3c 1b11 503c caf6 3b3d 3507 863c
00000120: 1db8 be3b 93c8 0b3c 20eb cbbc a6d8 11bc
00000130: 1bac 3f3c c0e5 733c 6ec0 dcbc 80d4 6cbc
00000140: 41e0 2abd fbc7 81bc 07a5 6b3d c42f 41bd
00000150: ab35 41bd 98a8 1f3d 852d 8c3c 5adb 56bc
00000160: 9083 073d 3006 f63c 75b0 3ebd 0b17 a8bb
00000170: b5fa d73b 1ccb 2fbd 1d54 34bd bc57 0ebd
00000180: 3e6c f1bb 2e50 c7bc a512 8cbc ff24 823c
00000190: 66d3 9abb 0901 543c 34bc 4a3b 687e 6cbd
000001a0: f7c9 2a3b 13bf 393d 0385 783d cf4c 1a3c
000001b0: 146e bb3b 4a56 75bc cbd6 64bd 708a 7c3c
000001c0: b557 bfba a7e6 f8bc 3c84 e1bc 3bdc 05bc
000001d0: 9e44 28bd 5898 7bbd 7cf4 bfbc b3ea 20bd
000001e0: defb 0dbd aa72 02bc 34a5 c03c 8692 323b
000001f0: c00a 7abd 2a0b 5ebd fe6f aabc d3ef c1bb
00000200: 4f20 733d 59ec 96bb 493c 043d 8515 52bc
00000210: 4663 06bd 7496 80bd c89b 27bd dc9b 353d
00000220: 3492 983c 45d1 c2bb 1dc3 f33c dae2 7e3d
00000230: 2512 9ebc f33d 1b3d dafe 683c 2387 5e3d
00000240: f13c 8cbc e333 3dbd 7f22 5ebd 4699 e93c
00000250: 47be fabc 8780 cfbb c804 553d 6f5f fd3c
00000260: ab87 393d 9e1d 7abd 3327 8e3c f085 4e3c
00000270: f444 8e3c 4f2e 45bd 4ffa a6b8 9951 a03a
00000280: 2034 483b 7955 733d 647d 90bc 400e d43b
00000290: 7425 6b3c c616 213d 646a b63c 6ccc 82bc
000002a0: 5844 95bc 6c02 61bd a008 45bb 2283 493d
000002b0: 3c01 663d 188d 76bc c8d0 9bbc 9cd7 653d
000002c0: 6aed aa3c fcfc 88bc 7c7a 02bd 3a3f f4bc
000002d0: af97 1f3c 3f01 7d3d 5834 2d3d fdfd 743d
000002e0: 4832 babb 7c78 8a3b 90de a73c 4ec1 fdbb
000002f0: 05a5 0fbc f449 df3a 9172 a4bc f5cb d1bc
00000300: bf0d e9bc ac96 36bd 39cc 503c 11bb 35bc
00000310: 54f4 57bd 963f 123c 1940 d13c 3be1 30bd
00000320: 3370 c73c 607a 263d 628c ecb9 0911 6cbb
00000330: 32c5 49bd 7ad2 1cbd 74f2 23bd 90b8 913c
00000340: 0134 40bb f7bb 7bbc 00d1 9dbc 3c35 3bbd
00000350: 2a9c c6bc 90db dabc f45c 21bd b6e0 5b3d
00000360: d269 763d 5907 263c 1613 243b 11f8 223d
00000370: 9e9d 7bbd 9f7c 9dbc 39d6 b9bb a5c9 40bd
00000380: 8704 56bd 2be2 48bd 7643 b43b 35f0 b4bc
00000390: d9d3 72bd e751 4fbd 0a5b 2f3d e53a ccbc
000003a0: fb9f 35bd 261a 1f3c 067f 4a3d 9287 263d
000003b0: e0c2 ecbc 67c9 aebc 16d9 54bd 8791 503d
000003c0: 2605 743d a435 f6bc 4af6 763d d039 81bc
000003d0: 7c7a f3bc 2b77 173d 39f9 cdbc f189 7f3c
000003e0: 8029 443b 9ff4 99bc 00f9 8a3c 9c3f 86bc
000003f0: 02f2 86bc 5f5e acbb 6dc8 323d d898 4fbc
0.04381126 0.019760935 0.02243754 0.024141772 -0.04902869 -0.06072555 -0.021107754 -0.015024579
0.0077906274 -0.0542957 0.05230695 0.029986154 -0.060866732 0.0017666131 -0.013806169 -0.051430516
0.038427003 -0.026484985 -0.026130665 0.039869502 0.049648874 0.048996363 -0.0359524 0.058765896
0.058008675 -0.05129904 -0.003809515 0.006715455 -0.02258779 0.054757338 -0.034789342 -0.06152079
-0.02751114 -0.053626448 -0.001644108 0.035071604 0.044283714 0.0048529264 0.012764957 0.047583297
0.0074405987 0.038584977 0.007854045 -0.02336684 -0.027178288 0.000811062 -0.018460449 -0.03277073
0.047153905 -0.060615122 -0.024998477 -0.048180897 -0.019309845 -0.051964223 0.041524246 -0.03361645
0.052192796 -0.051147614 -0.055342168 -0.049050856 -0.004863135 0.001837018 0.0059161154 0.032013997
0.024465635 0.032400396 -0.028011898 -0.0043191374 0.010667214 0.012699391 0.045889653 0.016360858
0.005820288 0.008531707 -0.02489239 -0.008901751 0.011698748 0.01488632 -0.026947226 -0.014454961
-0.04171777 -0.015842428 0.05753043 -0.047164693 -0.047170322 0.038979143 0.01711155 -0.013113821
0.033084452 0.030032247 -0.046555 -0.0051297 0.006591166 -0.04291831 -0.04402553 -0.03475164
-0.00736764 -0.024330225 -0.017098734 0.015886782 -0.0047249077 0.0129397 0.0030934932 -0.057737738
0.0026060322 0.04534824 0.060673725 0.009417727 0.0057199094 -0.014974186 -0.055868905 0.015413865
-0.0014598282 -0.030383421 -0.027528875 -0.008170183 -0.041081063 -0.061424583 -0.023432009 -0.039286327
-0.034664027 -0.007961908 0.023516275 0.002724798 -0.06104541 -0.054209866 -0.020805355 -0.005918482
0.059356984 -0.0046058116 0.032284055 -0.0128225135 -0.03280952 -0.06278697 -0.04092005 0.044338092
0.018624403 -0.005945357 0.029756123 0.06222806 -0.019295761 0.037900876 0.014220918 0.054328095
-0.017118903 -0.04619206 -0.054232117 0.02851547 -0.03060831 -0.0063324603 0.052006513 0.030929295
0.0452954 -0.0610634 0.017352676 0.012605175 0.017366864 -0.048139866 -7.9621204e-05 0.0012231349
0.0030548647 0.059407685 -0.017637916 0.0064714253 0.014352191 0.03932836 0.022267528 -0.015966617
-0.018221065 -0.05493395 -0.0030064955 0.049197324 0.05615352 -0.015048288 -0.019020453 0.056113824
0.020865161 -0.016722195 -0.03185509 -0.029815305 0.009740754 0.061768766 0.042286247 0.059812535
-0.0056822635 0.0042257886 0.020491868 -0.007743991 -0.008767371 0.001703559 -0.02007416 -0.02560995
-0.028448937 -0.044577286 0.012744003 -0.011091963 -0.052723244 0.008926293 0.02554326 -0.043183547
0.024345493 0.04064405 -0.0004511802 -0.0036020896 -0.049260326 -0.038286664 -0.040026143 0.017788202
-0.0029327872 -0.0153646385 -0.019264698 -0.045705065 -0.024244387 -0.026716024 -0.039395288 0.053681098
0.060159512 0.010133588 0.002503579 0.039787356 -0.061429612 -0.019224463 -0.0056712893 -0.047067303
-0.05225041 -0.049043816 0.005501206 -0.022087196 -0.059284065 -0.050615218 0.04281143 -0.024930427
-0.044342022 0.009710824 0.049437545 0.040656634 -0.028901517 -0.02133627 -0.05196484 0.050920036
0.059575222 -0.030054875 0.060293473 -0.015774637 -0.029721491 0.03697888 -0.025143253 0.015596853
0.0029931962 -0.018793402 0.016964436 -0.016387753 -0.01647282 -0.0052602733 0.043648172 -0.012670718

fc1.bias f4 [128]
00000000: 4ed7 36bc 82ed d2bc 9c99 33bd 681b 133c
00000010: 68e9 33bc e92c 0b3d e565 bd3b b594 cfbc
00000020: ec50 c23c 5255 093d 0096 91bc f268 123d
00000030: 243f f73c 502d 7a3c df90 2b3c 587a 393d
00000040: f8fb 56bd e03e 14bd a023 cabc 7829 72bc
00000050: 1b97 0c3b bff0 2abd d53f 0e3d 79ce 68bd
00000060: 770b 873c 5a0f cb3c c42e a83c 892d cebc
00000070: 9139 8b3d 8d72 acbc 4356 f63c c558 f1bc
00000080: 11e7 25bc 9e54 5e3d 632a fc3c 4c80 403d
00000090: 1bda b83c 244e 67bc 4b7e 233b 92d1 72bd
000000a0: aaab 943c d343 943c 9854 82ba 3983 1c3d
000000b0: befd f23c 6470 063d 5dde 57bd 40a7 d2bc
000000c0: c887 5a3c 94c3 183d 02a4 32bd e06f 72bd
000000d0: 4e1d 743d fc32 113d 6f4c 763d c551 cf3c
000000e0: b56d 603d f119 a5bb bffc 003c 9f7a 9c3c
000000f0: 97fa 1bbc 1981 81bd 025f 50bd d952 203d
00000100: 7a50 c53b a371 4bbd e335 1c3d ead4 c7bb
00000110: 1860 6bbd 3586 0dbd c271 e03c 3c8f 4c3d
00000120: dc66 f43b 97d6 56bd a0f0 c93b 4a78 303c
00000130: 9ffd 3cbd 5cc1 71bc 0f5a 04bd e92a 0d3d
00000140: 6f76 5bbd 82c4 ffbc e204 9a3c 720a 543d
00000150: 7dc5 7cbc 5112 9dbc 3181 833d 2a79 34bd
00000160: cf5b 503d 7e07 33bc f5cb 633c 84f7 4dbd
00000170: 5c20 603d 289a 78bd caa7 3d3d be77 433d
00000180: da2b 2f3d d5c4 74bd 2f9d c4bc fa82 31bd
00000190: df05 b0bc 6092 643b 4a17 95bd 1f40 243d
000001a0: 6cad 603d 69dc 7ebd 4794 bc3c 1cde 013d
000001b0: 52c3 883d e3e2 5dbd e6a2 95bc 17a5 7c3d
000001c0: d42c cb3b 868f 5f3d 6520 3a3d 82d0 b3bc
000001d0: 2eff 83bd 2f6e 6abd be91 46bd 5825 6d3c
000001e0: c40b 843b 00f5 063d 87d2 8a3c 7224 a43c
000001f0: 470e 4b3d 251d 823d 3249 29bd 3aee 5c3d
-0.011159731 -0.025748018 -0.043847665 0.008978702 -0.010980941 0.033978377 0.005779969 -0.025339464
0.023720227 0.033528633 -0.01777172 0.035744615 0.030181475 0.015269592 0.010471552 0.04528269
-0.05248639 -0.036192775 -0.02467519 -0.014780395 0.002145237 -0.0417335 0.034728844 -0.056837533
0.016484959 0.024787594 0.020530112 -0.025168197 0.06798089 -0.021050716 0.03007043 -0.029461274
-0.010125891 0.054279916 0.03078193 0.046997353 0.022564938 -0.014117751 0.0024947103 -0.059281893
0.018148262 0.018098747 -0.0009943424 0.03821108 0.02966201 0.032822028 -0.052702297 -0.025714517
0.013338037 0.037295893 -0.04361344 -0.059188724 0.05959826 0.035449013 0.060131487 0.025307545
0.054792125 -0.005038493 0.007872759 0.019101439 -0.0095201945 -0.063234515 -0.050871857 0.03914151
0.0060215564 -0.04966892 0.038137328 -0.0060983794 -0.05746469 -0.034551818 0.027397994 0.049941286
0.007458551 -0.052450743 0.006162718 0.010770867 -0.04614031 -0.014755573 -0.03231245 0.03446475
-0.053579744 -0.031221632 0.018801156 0.051767774 -0.015427944 -0.019173773 0.06421126 -0.044060864
0.050868805 -0.010927079 0.013903608 -0.050284877 0.05471836 -0.06069389 0.046302594 0.047721617
0.04276643 -0.059758026 -0.024000732 -0.0433378 -0.021487175 0.0034877285 -0.07279833 0.040100213
0.054852888 -0.06222192 0.023019923 0.03170596 0.066778794 -0.054171454 -0.018266153 0.06168088
0.0062004123 0.054580234 0.04544105 -0.02195001 -0.06445156 -0.057233986 -0.048478834 0.0144742355
0.004029723 0.032948494 0.01694609 0.02003691 0.049574163 0.06353215 -0.04132957 0.053938128

fc2.weight f4 [64, 128]
00000000: 25fe abbd ce5e 1a3d f69d b73c c47d 26bd
00000010: 867d 7a3d 73d2 2dbd 3ee2 d0b8 96c1 a23d
00000020: 5e74 063c 2907 72bd 19ed 8dbd d56c 193d
00000030: 722e d7b8 8f4b a03d 789f f53b dca1 82bd
00000040: f8ac bfba 5585 74bd 01fa 3cbd 9a44 ddbc
00000050: 1abe 7a3d 64b5 60bd aa64 8d3c 581a c5bc
00000060: 2e67 9abb 1075 b2bd 2a24 413d e505 8ebd
00000070: a49b 28bd 69a5 843c 1451 2abd 2d99 873d
00000080: 30c5 54bc 6d83 f1bc cf53 923d 41c9 88bd
00000090: 964b 0a3d 49b0 793d c546 973d 8231 8dbd
000000a0: ae31 38bd b18f 363b eba7 28bd 5eda a13d
000000b0: 20df a8bd d525 54bd 89f1 173d 8b52 0f3d
000000c0: eae1 693b 1662 4f3d 27d0 ad3c 8bde 873d
000000d0: 891f ac3b 9dc7 9abc 97e7 263c f3c9 d6bb
000000e0: a675 ab3d c465 3cbd 1621 803d f4e2 773d
000000f0: d62f 90bc f1d9 84bd 5a27 a8bd b9b4 ccbc
00000100: 3bb5 2cbd d40c 8c3d 0429 c1bc 7d42 a0bc
00000110: 20d7 37bc 3740 83bd 0748 15bd ec93 8abd
00000120: 41ca 57bd 0f10 12bd 6966 a9bd eefb 973d
00000130: b064 7c3d ae37 3abc b29e 063d 9de1 673c
00000140: 7927 8ebd 35ab c23b 7256 58bd ef0f ac3d
00000150: faf5 3fbc 8896 8d3d 1044 b3bd e2ea 2ebd
00000160: a792 38bd 0c70 8e3d 19de 283d 18c7 6a3d
00000170: 2416 87bc b2fe 0a3d aeaf 2b3c dbda a53d
00000180: a7f5 a1bd 8828 a7bc 009d ce39 0bcf a13c
00000190: 5040 86bd 56b4 ac3d 2eaf 4bbd d182 56bd
000001a0: 6c47 b8bc cc3f a93d 632b 90bd a9a2 97bb
000001b0: 9bfc 96bd 0e4f 3fbd e222 d43c b4e3 b4bd
000001c0: a191 b3bd 9255 11bd 679e a6bd e73d 68bd
000001d0: 2a0f 233c 223f 743d 5f65 20bd 1ee6 2f3d
000001e0: c91c 19bc 11f2 753c d8f7 8b3d b1c5 a83d
000001f0: c02a 0c3c 3881 3abd 6811 4f3c 2249 00bd
00000200: 6d1a 183d 47df 4d3d e4a7 2fbd f630 8a3d
00000210: 6903 44ba 2581 983d 2981 b63d a8e5 e83c
00000220: edb3 0cbc 0384 afbd 9cc6 36bd cc40 af3d
00000230: 1f3d 2c3d 491e 113d 8cf5 a2bd 265e 21bd
00000240: 0bbf 7fbd a4c0 58bc 07c7 0dbd 02a7 8e3d
00000250: 94bc 95bd 0469 8b3d 81a1 96bd a4c3 903d
00000260: 45a3 153d 28d5 97bc c1f0 cd3b afd4 ce3b
00000270: 939d 29bd a8e8 753d 297d 7ebd c043 f6bc
00000280: ac0a 923c 4940 943d eac6 473d 0246 b13d
00000290: 2262 1bbd 67a4 6bbd a35e 12bd 1133 03bd
000002a0: c6ac 70bd adad 233d b318 85bd 85b2 d43b
000002b0: 74d4 333d 3b4f d53c a396 7b3d d69d 99bb
000002c0: 9a42 13bc 0e44 77bd 5bb5 5b3d 0cf9 8bbd
000002d0: 0fc9 8e3d a991 8ebd 93bc 483d 8f13 153d
000002e0: a138 3f3d 948f 95bb a1b6 37bd f4ef 12bd
000002f0: 8de2 843c c12d 9f3d e9c5 833d 2567 b03d
00000300: fa5e 813d 5742 3dbd 2dc3 6dbd 4bc1 5c3c
00000310: b1ec 16bd 99e6 8a3c 8903 a23d b543 62bd
00000320: 4a80 04bd bcf3 343d 3877 2e3d b218 b93d
00000330: 49de 833d 1a6d 663d 5e83 05bd 3ee1 12bd
00000340: b646 0c3c 0279 c9bc 724f 60bd d186 7fbc
00000350: ebfa 883d adcb ae3c 2760 9f3d 557d 293d
00000360: 7cc0 893d 643d 5c3d 2d7e a4bd 2127 52bd
00000370: 52ac 643b 3542 0bbd d910 1e3c 3fec cbbb
00000380: 6ed7 a73d 36f9 2bbd 66a0 e6bb 68cc 85bd
00000390: e19f 7dbd 6bf0 5dbd e273 913d 7cd9 81bd
000003a0: dc4c afbc 6631 dcbc 75f9 8fbc 536c 7a3d
000003b0: 1933 013d f1db ce3b 17b9 82bc c762 06bd
000003c0: 2d76 70bd 26b8 713c ae1a a0bb d78d 82bb
000003d0: be85 2c3b 4ea4 913c d172 33ba c454 90bd
000003e0: df48 1c3d 6c97 8dbd 1c52 28bd e77e 68bd
000003f0: 4992 a0bd 6dd7 1dbd 313b 61bc 2f61 1fbd
-0.083980836 0.03768807 0.022414189 -0.040647283 0.061154865 -0.04243703 -9.960354e-05 0.0794708
0.008206455 -0.05908886 -0.069299884 0.037457306 -0.0001026065 0.07826912 0.007495817 -0.063785285
-0.0014623692 -0.059697468 -0.04613686 -0.02701025 0.06121645 -0.054860488 0.017259914 -0.024060413
-0.004712007 -0.08713734 0.04715363 -0.06934718 -0.041164055 0.016192155 -0.04158123 0.06621013
-0.012986466 -0.029481614 0.071448915 -0.06679011 0.03376349 0.060959134 0.07386545 -0.068942085
-0.044969253 0.0027856643 -0.041175764 0.07902978 -0.08245683 -0.051793892 0.03709558 0.03499083
0.0035687634 0.05063065 0.021217419 0.066342436 0.0052527827 -0.018894011 0.010187051 -0.006554836
0.08372049 -0.04599549 0.06256311 0.060519174 -0.017600935 -0.064868815 -0.08210631 -0.024988519
-0.042165022 0.06838384 -0.023579128 -0.019562954 -0.011220723 -0.064087324 -0.036445644 -0.06766495
-0.05268312 -0.035659846 -0.08271486 0.07421099 0.06161946 -0.011365814 0.032866187 0.0141529115
-0.069411226 0.0059408196 -0.052816816 0.084014766 -0.01171636 0.06913477 -0.08753216 -0.04270447
-0.045061734 0.06954965 0.041227434 0.057318777 -0.01649005 0.033934303 0.010478897 0.08098384
-0.079081826 -0.020405069 0.00039408356 0.019752046 -0.065552354 0.08432834 -0.04972761 -0.05237085
-0.022494994 0.082641214 -0.07039525 -0.004627545 -0.073723994 -0.04670625 0.02589554 -0.088324934
-0.08768011 -0.035481997 -0.081356816 -0.05669966 0.009952346 0.05963052 -0.039159175 0.042944066
-0.009345242 0.015011326 0.06834382 0.08240832 0.008555114 -0.04553339 0.012638427 -0.031319745
0.037134577 0.050261762 -0.042884722 0.0674762 -0.0007477315 0.07446507 0.08911354 0.028429821
-0.0085878195 -0.08570101 -0.044623002 0.08557281 0.042050477 0.035429273 -0.079569906 -0.039396428
-0.062438052 -0.013229523 -0.034613635 0.06965448 -0.07311359 0.068071395 -0.07355023 0.070685655
0.03653266 -0.018534258 0.0062848036 0.006311975 -0.04141004 0.06003633 -0.06213108 -0.030061603
0.017827354 0.07238824 0.048773684 0.08655931 -0.037935384 -0.057529833 -0.035734784 -0.032031123
-0.05875852 0.039960552 -0.064988516 0.0064910077 0.043903783 0.026038757 0.061422955 -0.004688005
-0.008988047 -0.060367636 0.05363975 -0.06834611 0.06971943 -0.06961376 0.049007963 0.036395606
0.046684865 -0.004564235 -0.044851903 -0.03587337 0.01622131 0.07772399 0.06434233 0.08613423
0.063169435 -0.046205845 -0.058047462 0.013473819 -0.03684682 0.01695566 0.079108305 -0.05524035
-0.03234891 0.044177756 0.042594165 0.090379134 0.06438882 0.05625639 -0.032595985 -0.03585934
0.008561781 -0.024593834 -0.054763265 -0.015596108 0.06688484 0.021337355 0.077820115 0.04137929
0.067261666 0.053769484 -0.080318786 -0.051306847 0.003489275 -0.033998687 0.0096475715 -0.006223231
0.08195387 -0.041985713 -0.007038164 -0.06533128 -0.06192005 -0.05418436 0.07102181 -0.0634031
-0.021398954 -0.026879024 -0.017575005 0.061138462 0.03154287 0.00631284 -0.015957398 -0.032809045
-0.05870645 0.014753377 -0.004885993 -0.003984194 0.0026324834 0.017778542 -0.0006845417 -0.07047418
0.038155433 -0.06913647 -0.04109393 -0.05676165 -0.07840402 -0.038535524 -0.0137470225 -0.03891104

fc2.bias f4 [64]
00000000: b8c7 f7bc b632 a1bb d716 a6bd 270e 793d
00000010: 07cd 903d 3afc 26bd 4a22 30bd 8010 743d
00000020: 1323 9c3d 5c69 a53d 9f40 d2bc 2bcc ebbc
00000030: f9b8 1bbd 235f 80bd 8018 9ebd d2ac 183c
00000040: 7072 cb3d 34fb 8ebd 5e7c 463c 21d4 893d
00000050: 7146 9abd 49b6 853d 89cf 1fbd 9a51 73bd
00000060: 66ab 733c c0a8 1d3c 7060 853d 457d 1bbc
00000070: ea14 a03c ce70 26bd 176e 133d 3d3c b53d
00000080: d6c3 3cbd 445f 5c3b d3ab 7a3d 5c02 773d
00000090: 0962 d4bb 2eeb 5d3c b980 353d d09e a1bd
000000a0: 9fbb e1bc e1aa 99bd 1c57 dfbb f7fd 83bd
000000b0: f1c3 b83c caba 853d ccd3 b7bd 7b7c a2bc
000000c0: 53ff a7bb 836e b83d a2ab 2cbd 5a1e 623c
000000d0: 21d7 3d3d cb82 843d 98c4 d83d d276 513c
000000e0: c1f9 643d 47af 8abd 9588 883b ff46 70bd
000000f0: 2af4 95bd f6fe 8c3d c84a a63c 7900 8839
-0.0302466 -0.0049193753 -0.08109825 0.060804512 0.07070356 -0.040767886 -0.04300145 0.059586048
0.076238774 0.08076736 -0.02566558 -0.028783878 -0.0380182 -0.06268146 -0.07719517 0.009318547
0.099339366 -0.06981507 0.012114612 0.067299135 -0.07532967 0.06528909 -0.03901628 -0.059403993
0.014872408 0.009622753 0.065125346 -0.009490316 0.019541223 -0.040634923 0.03599366 0.0884938
-0.0460852 0.0033626119 0.06119902 0.060304984 -0.0064814133 0.013544841 0.044312213 -0.07891619
-0.027555285 -0.07503296 -0.006815804 -0.06444924 0.02255437 0.06529768 -0.08975944 -0.019834748
-0.0051268726 0.090054534 -0.04215587 0.013801182 0.04634774 0.06470259 0.10584372 0.012784677
0.055902246 -0.06771713 0.0041666725 -0.058661457 -0.07321961 0.068845674 0.02029933 0.00025940294

fc3.weight f4 [10, 64]
00000000: 0caf 98bd 4862 28bd 252a 2dbd 1726 343e
00000010: d7f5 6ebd 69a2 ab3c 3659 44bc 9f29 b6bc
00000020: 4e4b 003e 9cf7 9fbc 2104 013d d226 713c
00000030: 3010 e2bd 286c b53d 75a7 8f3d 1de6 10be
00000040: 7272 8f3e 9ab4 113e 982c b2bd 26c9 0fbe
00000050: d7fe 82bd dfdb 963d 6a92 ce3d bed6 183d
00000060: 59c5 d0bd 9cba 2a3d 7056 543d a5af febc
00000070: 7689 883d 2859 72bd 4a30 6dbe fd39 053e
00000080: 5f34 bcbc 524f 003d 4664 5c3e f97d ecbd
00000090: ee18 abbd 0334 d6bd c0f4 9f3c 09a2 a93d
000000a0: 1137 00be 8b8b 6f3d dc8b 17be 7a77 91bd
000000b0: c9dd 633d 1da0 2cbe 7d83 7c3c 7fc1 00be
000000c0: 4cf4 72be 89df 38bc b516 ff3c d9c8 84bd
000000d0: 4e14 e0bd 4192 d7ba 40eb 503e b377 623e
000000e0: e48b 3b3d 6f2c babd e58f 0cbd f237 6c3d
000000f0: 52ff 663d bbd8 cdbd 8869 0f3e b949 6b3e
00000100: 50d0 903d 70e2 143d b55f c63d c27a 0b3c
00000110: 7c3e 5b3e 1012 a5bd c6d4 eebd 95be 37bd
00000120: 7556 9ebe 22ba 0c3d ddbc df3d 52d4 d9bd
00000130: 8707 dcbc 5f33 0b3d 8931 4e3d d489 3cbe
00000140: 4bd3 1dbe 83dd a93d f0e6 263e f318 753d
00000150: d159 703d f90d 9a3d 4df8 66bb d576 cebd
00000160: 9ec9 d5bd 4853 b23d 3d6d e0bd 8e11 cd3a
00000170: 1bde 97bd 74d9 3fbd 74e8 8b3c c4c3 26be
00000180: c249 273d 4965 323c c35c 453e bcd8 debb
00000190: eda6 113e 7b4b 2fbe 2447 fb3c 0ef9 39bd
000001a0: 3b71 223b 51ea a2bd 602e 14be 0933 3cbe
000001b0: c755 c33d 35f5 4d3c 17a5 79bb ae35 df3d
000001c0: 1d32 fcbd 8cfd 2abe 8cc4 783d 5285 933e
000001d0: 8dc0 543e b032 0bbe 2b72 12bd d698 1f3e
000001e0: 6853 e43d c496 bdbc 0562 f4bb e40d fd3d
000001f0: fe79 843d 2eea 7e3e efda f33c 0967 aabd
00000200: 5871 6cbd d30d 0d3d 1237 62bd e51c 48bc
00000210: 4956 8d3d 17a8 363d 2078 26bc 829e 653d
00000220: 0d26 4e3b ff26 96bc 6baa c0bd 3d18 2b3e
00000230: 690d 98bd 7c48 21be ce70 b6bd ccab 813e
00000240: a194 783e 22ce 90bd 09a2 a33d 1a33 303e
00000250: 9ae1 6f3d 1631 1d3e 4553 4fbe ca22 013e
00000260: 691d cf3d f93d b13d be5e e0bb 83b7 5d3e
00000270: 179b 2c3e 74d3 b5bd 43fb acbe dfb4 31be
00000280: a5f7 0cbe 5944 bdbd 7234 2d3e 4912 96bd
00000290: 200f 1b3e ba58 79bd 4cb2 02bd e958 ea3d
000002a0: fc96 00be 6419 1abe 9194 33be 8d8c 013d
000002b0: b856 223e 0ee6 6d3d f5be e3ba 09e3 99bd
000002c0: fdab 4a3e eea2 58be 1a5c ecbd f099 cfbd
000002d0: 0da3 d6bd 0109 b63d 5caa c4bd 45bc 4dbd
000002e0: 596e b73d ef4c 64bc 37ff 963c 8ed8 d33d
000002f0: 5c60 853c 77bc 203e dd7e c5bd 33e3 1a3d
00000300: a2ec dcbd 94b7 80bd be34 cc3d 769b 803c
00000310: 500c f03d 1513 173e 90bd 1bbd 146d 4e3e
00000320: b56f 633e 93f5 413e 079d 23bd 64b9 6e3c
00000330: a771 a83b 5420 3c3d 3009 25bc b075 6c3e
00000340: 077d 73be 07f6 c5bc 1a18 87bd 230d 4cbe
00000350: cc90 873d 2208 f63c 6f1e 78bc 314c 9abd
00000360: 8aea 71bd 5cde bc3d 575b 873d c699 91bd
00000370: 1d2d 39be d453 e93d 3b21 f4bc ba95 05be
00000380: 07f8 5fbe 8897 13be 4c12 28be 65c1 02be
00000390: c42b 8bbe 69cb e4bd 1f6f b73c 50f7 ecbd
000003a0: d36f 1abe f836 023e abad a23c 4ad9 013e
000003b0: 98c5 c13d b246 4bbd f90e 9bbd f979 a63d
000003c0: aeb4 8f3e d4bf f33d 6229 f6bd aca5 2c3e
000003d0: d5f5 38be 4456 fd3d b07b 1ebd 804b dfbd
000003e0: 5045 0f3e 8960 0abe 372f 973b 52c1 e8bd
000003f0: 911e 003d 66ca 273d cd40 28be 1ac3 96bd
-0.074552625 -0.041109353 -0.04227652 0.17592655 -0.05833992 0.020951467 -0.01198416 -0.022236643
0.12528726 -0.019527249 0.03149808 0.014718728 -0.11038244 0.0885852 0.07014362 -0.14150281
0.28017002 0.1422905 -0.08699912 -0.14041576 -0.06396263 0.07366156 0.1008652 0.03731417
-0.10193891 0.04168187 0.051840246 -0.031089613 0.066668436 -0.059167057 -0.23162952 0.13010402
-0.022974191 0.031325646 0.21522626 -0.11547465 -0.08354364 -0.10459139 0.019525886 0.08282859
-0.12521006 0.058482688 -0.14799446 -0.071028665 0.055631433 -0.16857953 0.015412209 -0.12573813
-0.23726004 -0.011283764 0.031138757 -0.06483621 -0.10941373 -0.0016446785 0.20402241 0.22115974
0.045787707 -0.09090506 -0.034316916 0.05767054 0.056395836 -0.10051104 0.140051 0.22977342
0.070709825 0.03634876 0.096862234 0.008513154 0.21410555 -0.08060086 -0.11661677 -0.044859488
-0.30925336 0.034357198 0.10924695 -0.106362 -0.026859058 0.03398454 0.05034021 -0.18411952
-0.15412633 0.08294203 0.16299033 0.059838247 0.058679406 0.07522196 -0.0035243214 -0.10081259
-0.10438846 0.08707291 -0.109583355 0.001564549 -0.0741541 -0.04683824 0.017078616 -0.16285616
0.040841825 0.010888406 0.19273667 -0.006800739 0.14223833 -0.17118637 0.03067357 -0.045403533
0.002478673 -0.079548486 -0.14470816 -0.18378843 0.09537845 0.012570669 -0.0038092786 0.108989105
-0.12314246 -0.16698283 0.060734317 0.28812653 0.20776577 -0.13593554 -0.03575341 0.15585646
0.11148721 -0.02314318 -0.007457974 0.12356165 0.06468581 0.2489402 0.029767482 -0.08320434
-0.05772528 0.034437012 -0.0552283 -0.01221392 0.06901223 0.044593897 -0.010160476 0.056059368
0.0031455786 -0.018329142 -0.09407505 0.16708465 -0.07424433 -0.15750307 -0.089082345 0.25326383
0.24275447 -0.07070567 0.0798989 0.17206994 0.05856476 0.15350756 -0.20246609 0.12610927
0.101130314 0.086543985 -0.0068472316 0.21652035 0.16856037 -0.08878222 -0.33785447 -0.17354153
-0.13766344 -0.09241552 0.16914538 -0.07327706 0.15142488 -0.060875632 -0.03190832 0.114427395
-0.12557596 -0.15048748 -0.17537142 0.03162818 0.15853393 0.058080725 -0.0017375635 -0.07514007
0.19792171 -0.21155903 -0.115410045 -0.10136783 -0.10480318 0.08888436 -0.09602806 -0.050228376
0.08956594 -0.013934358 0.018432243 0.10344039 0.0162813 0.15696894 -0.09643338 0.03781433
-0.107873216 -0.06285015 0.09970997 0.01569913 0.117210984 0.14753373 -0.038022578 0.20158798
0.22210582 0.18941335 -0.039944675 0.014570568 0.0051405015 0.045929268 -0.010072991 0.23091769
-0.23778163 -0.024165167 -0.06596394 -0.19926886 0.06619415 0.030033175 -0.015143975 -0.075340636
-0.059061565 0.09222099 0.066092186 -0.07109408 -0.18083616 0.11392942 -0.029801002 -0.13045397
-0.21871959 -0.14413273 -0.1641323 -0.12769087 -0.27181828 -0.1117161 0.022391854 -0.115706086
-0.1508172 0.12716281 0.019858202 0.12680545 0.09461516 -0.049627967 -0.07571215 0.08128733
0.28067535 0.11901823 -0.12019612 0.16860074 -0.18062527 0.123699695 -0.038692176 -0.10903072
0.13991284 -0.13513388 0.0046137827 -0.11364998 0.03127915 0.040964507 -0.1643097 -0.073614314

fc3.bias f4 [10]
00000000: ad38 8dbd a660 4ebd 5a2a 163b f203 203d
00000010: 1a0e a13c 5488 c4bd d573 a13d 88fd 3fbd
00000020: afa8 963d 42f8 2fbd
-0.06895576 -0.05038514 0.0022913427 0.039066263 0.019660044 -0.09596315 0.07883421 -0.046872646
0.073563926 -0.042961366
